…
    "sum_losses": true,
    "task": "LoS",
    "trans_dropout_rate": 0.05
}
2022-05-04 00:52:30,854 - INFO - Experiment set up.
2022-05-04 00:52:34,758 - INFO - Transformer(
  (relu): ReLU()
  (sigmoid): Sigmoid()
  (hardtanh): Hardtanh(min_val=0.020833333333333332, max_val=100)
  (trans_dropout): Dropout(p=0.05, inplace=False)
  (main_dropout): Dropout(p=0, inplace=False)
  (msle_loss): MSLELoss(
    (squared_error): MSELoss()
  )
  (mse_loss): MSELoss(
    (squared_error): MSELoss()
  )
  (bce_loss): BCELoss()
  (empty_module): EmptyModule()
  (transformer): TransformerEncoder(
    (input_embedding): Conv1d(204, 32, kernel_size=(1,), stride=(1,))
    (pos_encoder): PositionalEncoding()
    (trans_encoder_layer): TransformerEncoderLayer(
      (self_attn): MultiheadAttention(
        (out_proj): Linear(in_features=32, out_features=32, bias=True)
      )
      (linear1): Linear(in_features=32, out_features=64, bias=True)
      (dropout): Dropout(p=0.05, inplace=False)
      (linear2): Linear(in_features=64, out_features=32, bias=True)
      (norm1): LayerNorm((32,), eps=1e-05, elementwise_affine=True)
      (norm2): LayerNorm((32,), eps=1e-05, elementwise_affine=True)
      (dropout1): Dropout(p=0.05, inplace=False)
      (dropout2): Dropout(p=0.05, inplace=False)
    )
    (transformer_encoder): TransformerEncoder(
      (layers): ModuleList(
        (0): TransformerEncoderLayer(
          (self_attn): MultiheadAttention(
            (out_proj): Linear(in_features=32, out_features=32, bias=True)
          )
          (linear1): Linear(in_features=32, out_features=64, bias=True)
          (dropout): Dropout(p=0.05, inplace=False)
          (linear2): Linear(in_features=64, out_features=32, bias=True)
          (norm1): LayerNorm((32,), eps=1e-05, elementwise_affine=True)
          (norm2): LayerNorm((32,), eps=1e-05, elementwise_affine=True)
          (dropout1): Dropout(p=0.05, inplace=False)
          (dropout2): Dropout(p=0.05, inplace=False)
        )
        (1): TransformerEncoderLayer(
          (self_attn): MultiheadAttention(
            (out_proj): Linear(in_features=32, out_features=32, bias=True)
          )
          (linear1): Linear(in_features=32, out_features=64, bias=True)
          (dropout): Dropout(p=0.05, inplace=False)
          (linear2): Linear(in_features=64, out_features=32, bias=True)
          (norm1): LayerNorm((32,), eps=1e-05, elementwise_affine=True)
          (norm2): LayerNorm((32,), eps=1e-05, elementwise_affine=True)
          (dropout1): Dropout(p=0.05, inplace=False)
          (dropout2): Dropout(p=0.05, inplace=False)
        )
      )
    )
  )
  (diagnosis_encoder): Linear(in_features=1, out_features=64, bias=True)
  (bn_diagnosis_encoder): MyBatchNorm1d(64, eps=1e-05, momentum=0.1, affine=True, track_running_stats=True)
  (point_los): Linear(in_features=65, out_features=36, bias=True)
  (point_mort): Linear(in_features=65, out_features=36, bias=True)
  (bn_point_last_los): MyBatchNorm1d(36, eps=1e-05, momentum=0.1, affine=True, track_running_stats=True)
  (bn_point_last_mort): MyBatchNorm1d(36, eps=1e-05, momentum=0.1, affine=True, track_running_stats=True)
  (point_final_los): Linear(in_features=36, out_features=1, bias=True)
  (point_final_mort): Linear(in_features=36, out_features=1, bias=True)
)
2022-05-04 03:15:26,297 - INFO - Custom bins confusion matrix:
2022-05-04 03:15:26,298 - INFO - [[98219 65527 21752  8857  4098  2158  1067   592   904    61]
 [32419 45361 26060 12964  6949  3966  2281  1237  1836   136]
 [12152 25124 19487 12467  7404  4597  2893  1993  2835   412]
 [ 5144 14893 13644  9965  6688  4782  3131  2058  3993   454]
 [ 2841  9000  9436  7870  5614  4259  3007  2223  4403   862]
…
