…
        12,
        12,
        12,
        12,
        12,
        12,
        12,
        12
    ]
}
2022-05-04 04:24:38,111 - INFO - Experiment set up.
2022-05-04 04:24:41,361 - INFO - TempPointConv(
  (relu): ReLU()
  (sigmoid): Sigmoid()
  (hardtanh): Hardtanh(min_val=0.020833333333333332, max_val=100)
  (msle_loss): MSLELoss(
    (squared_error): MSELoss()
  )
  (mse_loss): MSELoss(
    (squared_error): MSELoss()
  )
  (bce_loss): BCELoss()
  (main_dropout): Dropout(p=0.45, inplace=False)
  (temp_dropout): Dropout(p=0.05, inplace=False)
  (empty_module): EmptyModule()
  (diagnosis_encoder): Linear(in_features=1, out_features=64, bias=True)
  (bn_diagnosis_encoder): MyBatchNorm1d(64, eps=1e-05, momentum=0.1, affine=True, track_running_stats=True)
  (bn_point_last_los): MyBatchNorm1d(17, eps=1e-05, momentum=0.1, affine=True, track_running_stats=True)
  (bn_point_last_mort): MyBatchNorm1d(17, eps=1e-05, momentum=0.1, affine=True, track_running_stats=True)
  (point_final_los): Linear(in_features=17, out_features=1, bias=True)
  (point_final_mort): Linear(in_features=17, out_features=1, bias=True)
  (layer_modules): ModuleDict(
    (0): ModuleDict(
      (bn_point): MyBatchNorm1d(13, eps=1e-05, momentum=0.1, affine=True, track_running_stats=True)
      (bn_temp): MyBatchNorm1d(1212, eps=1e-05, momentum=0.1, affine=True, track_running_stats=True)
      (point): Linear(in_features=237, out_features=13, bias=True)
      (temp): Conv1d(202, 1212, kernel_size=(4,), stride=(1,), groups=101)
    )
    (1): ModuleDict(
      (bn_point): MyBatchNorm1d(13, eps=1e-05, momentum=0.1, affine=True, track_running_stats=True)
      (bn_temp): MyBatchNorm1d(1368, eps=1e-05, momentum=0.1, affine=True, track_running_stats=True)
      (point): Linear(in_features=1462, out_features=13, bias=True)
      (temp): Conv1d(1482, 1368, kernel_size=(4,), stride=(1,), dilation=(3,), groups=114)
    )
    (2): ModuleDict(
      (bn_point): MyBatchNorm1d(13, eps=1e-05, momentum=0.1, affine=True, track_running_stats=True)
      (bn_temp): MyBatchNorm1d(1524, eps=1e-05, momentum=0.1, affine=True, track_running_stats=True)
      (point): Linear(in_features=1618, out_features=13, bias=True)
      (temp): Conv1d(1651, 1524, kernel_size=(4,), stride=(1,), dilation=(6,), groups=127)
    )
    (3): ModuleDict(
      (bn_point): MyBatchNorm1d(13, eps=1e-05, momentum=0.1, affine=True, track_running_stats=True)
      (bn_temp): MyBatchNorm1d(1680, eps=1e-05, momentum=0.1, affine=True, track_running_stats=True)
      (point): Linear(in_features=1774, out_features=13, bias=True)
      (temp): Conv1d(1820, 1680, kernel_size=(4,), stride=(1,), dilation=(9,), groups=140)
    )
    (4): ModuleDict(
      (bn_point): MyBatchNorm1d(13, eps=1e-05, momentum=0.1, affine=True, track_running_stats=True)
      (bn_temp): MyBatchNorm1d(1836, eps=1e-05, momentum=0.1, affine=True, track_running_stats=True)
      (point): Linear(in_features=1930, out_features=13, bias=True)
      (temp): Conv1d(1989, 1836, kernel_size=(4,), stride=(1,), dilation=(12,), groups=153)
    )
    (5): ModuleDict(
      (bn_point): MyBatchNorm1d(13, eps=1e-05, momentum=0.1, affine=True, track_running_stats=True)
      (bn_temp): MyBatchNorm1d(1992, eps=1e-05, momentum=0.1, affine=True, track_running_stats=True)
      (point): Linear(in_features=2086, out_features=13, bias=True)
      (temp): Conv1d(2158, 1992, kernel_size=(4,), stride=(1,), dilation=(15,), groups=166)
    )
    (6): ModuleDict(
      (bn_point): MyBatchNorm1d(13, eps=1e-05, momentum=0.1, affine=True, track_running_stats=True)
      (bn_temp): MyBatchNorm1d(2148, eps=1e-05, momentum=0.1, affine=True, track_running_stats=True)
      (point): Linear(in_features=2242, out_features=13, bias=True)
      (temp): Conv1d(2327, 2148, kernel_size=(4,), stride=(1,), dilation=(18,), groups=179)
    )
    (7): ModuleDict(
      (bn_point): MyBatchNorm1d(13, eps=1e-05, momentum=0.1, affine=True, track_running_stats=True)
      (bn_temp): MyBatchNorm1d(2304, eps=1e-05, momentum=0.1, affine=True, track_running_stats=True)
      (point): Linear(in_features=2398, out_features=13, bias=True)
      (temp): Conv1d(2496, 2304, kernel_size=(4,), stride=(1,), dilation=(21,), groups=192)
    )
    (8): ModuleDict(
      (bn_point): MyBatchNorm1d(13, eps=1e-05, momentum=0.1, affine=True, track_running_stats=True)
      (bn_temp): MyBatchNorm1d(2460, eps=1e-05, momentum=0.1, affine=True, track_running_stats=True)
      (point): Linear(in_features=2554, out_features=13, bias=True)
      (temp): Conv1d(2665, 2460, kernel_size=(4,), stride=(1,), dilation=(24,), groups=205)
    )
  )
  (point_last_los): Linear(in_features=2867, out_features=17, bias=True)
  (point_last_mort): Linear(in_features=2867, out_features=17, bias=True)
)
2022-05-04 08:26:41,930 - INFO - Custom bins confusion matrix:
2022-05-04 08:26:41,931 - INFO - [[151054  43158   5496   1861    752    378    214    118    191     13]
 [ 23326  86095  14446   4782   1947   1024    611    329    601     48]
 [  2521  43425  26553   8441   3600   1898   1116    623   1027    160]
 [   812  13524  24133  12825   5701   2759   1822   1051   1804    321]
…
