…
        12,
        12,
        12,
        12,
        12,
        12,
        12,
        12
    ]
}
2022-04-29 03:45:58,979 - INFO - Experiment set up.
2022-04-29 03:46:01,610 - INFO - TempPointConv(
  (relu): ReLU()
  (sigmoid): Sigmoid()
  (hardtanh): Hardtanh(min_val=0.020833333333333332, max_val=100)
  (msle_loss): MSLELoss(
    (squared_error): MSELoss()
  )
  (mse_loss): MSELoss(
    (squared_error): MSELoss()
  )
  (bce_loss): BCELoss()
  (main_dropout): Dropout(p=0.45, inplace=False)
  (temp_dropout): Dropout(p=0.05, inplace=False)
  (empty_module): EmptyModule()
  (diagnosis_encoder): Linear(in_features=293, out_features=64, bias=True)
  (bn_diagnosis_encoder): MyBatchNorm1d(64, eps=1e-05, momentum=0.1, affine=True, track_running_stats=True)
  (bn_point_last_los): MyBatchNorm1d(17, eps=1e-05, momentum=0.1, affine=True, track_running_stats=True)
  (bn_point_last_mort): MyBatchNorm1d(17, eps=1e-05, momentum=0.1, affine=True, track_running_stats=True)
  (point_final_los): Linear(in_features=17, out_features=1, bias=True)
  (point_final_mort): Linear(in_features=17, out_features=1, bias=True)
  (layer_modules): ModuleDict(
    (0): ModuleDict(
      (bn_point): MyBatchNorm1d(13, eps=1e-05, momentum=0.1, affine=True, track_running_stats=True)
      (bn_temp): MyBatchNorm1d(1044, eps=1e-05, momentum=0.1, affine=True, track_running_stats=True)
      (point): Linear(in_features=241, out_features=13, bias=True)
      (temp): Conv1d(174, 1044, kernel_size=(4,), stride=(1,), groups=87)
    )
    (1): ModuleDict(
      (bn_point): MyBatchNorm1d(13, eps=1e-05, momentum=0.1, affine=True, track_running_stats=True)
      (bn_temp): MyBatchNorm1d(1044, eps=1e-05, momentum=0.1, affine=True, track_running_stats=True)
      (point): Linear(in_features=13, out_features=13, bias=True)
      (temp): Conv1d(1044, 1044, kernel_size=(4,), stride=(1,), dilation=(3,), groups=87)
    )
    (2): ModuleDict(
      (bn_point): MyBatchNorm1d(13, eps=1e-05, momentum=0.1, affine=True, track_running_stats=True)
      (bn_temp): MyBatchNorm1d(1044, eps=1e-05, momentum=0.1, affine=True, track_running_stats=True)
      (point): Linear(in_features=13, out_features=13, bias=True)
      (temp): Conv1d(1044, 1044, kernel_size=(4,), stride=(1,), dilation=(6,), groups=87)
    )
    (3): ModuleDict(
      (bn_point): MyBatchNorm1d(13, eps=1e-05, momentum=0.1, affine=True, track_running_stats=True)
      (bn_temp): MyBatchNorm1d(1044, eps=1e-05, momentum=0.1, affine=True, track_running_stats=True)
      (point): Linear(in_features=13, out_features=13, bias=True)
      (temp): Conv1d(1044, 1044, kernel_size=(4,), stride=(1,), dilation=(9,), groups=87)
    )
    (4): ModuleDict(
      (bn_point): MyBatchNorm1d(13, eps=1e-05, momentum=0.1, affine=True, track_running_stats=True)
      (bn_temp): MyBatchNorm1d(1044, eps=1e-05, momentum=0.1, affine=True, track_running_stats=True)
      (point): Linear(in_features=13, out_features=13, bias=True)
      (temp): Conv1d(1044, 1044, kernel_size=(4,), stride=(1,), dilation=(12,), groups=87)
    )
    (5): ModuleDict(
      (bn_point): MyBatchNorm1d(13, eps=1e-05, momentum=0.1, affine=True, track_running_stats=True)
      (bn_temp): MyBatchNorm1d(1044, eps=1e-05, momentum=0.1, affine=True, track_running_stats=True)
      (point): Linear(in_features=13, out_features=13, bias=True)
      (temp): Conv1d(1044, 1044, kernel_size=(4,), stride=(1,), dilation=(15,), groups=87)
    )
    (6): ModuleDict(
      (bn_point): MyBatchNorm1d(13, eps=1e-05, momentum=0.1, affine=True, track_running_stats=True)
      (bn_temp): MyBatchNorm1d(1044, eps=1e-05, momentum=0.1, affine=True, track_running_stats=True)
      (point): Linear(in_features=13, out_features=13, bias=True)
      (temp): Conv1d(1044, 1044, kernel_size=(4,), stride=(1,), dilation=(18,), groups=87)
    )
    (7): ModuleDict(
      (bn_point): MyBatchNorm1d(13, eps=1e-05, momentum=0.1, affine=True, track_running_stats=True)
      (bn_temp): MyBatchNorm1d(1044, eps=1e-05, momentum=0.1, affine=True, track_running_stats=True)
      (point): Linear(in_features=13, out_features=13, bias=True)
      (temp): Conv1d(1044, 1044, kernel_size=(4,), stride=(1,), dilation=(21,), groups=87)
    )
    (8): ModuleDict(
      (bn_point): MyBatchNorm1d(13, eps=1e-05, momentum=0.1, affine=True, track_running_stats=True)
      (bn_temp): MyBatchNorm1d(1044, eps=1e-05, momentum=0.1, affine=True, track_running_stats=True)
      (point): Linear(in_features=13, out_features=13, bias=True)
      (temp): Conv1d(1044, 1044, kernel_size=(4,), stride=(1,), dilation=(24,), groups=87)
    )
  )
  (point_last_los): Linear(in_features=1186, out_features=17, bias=True)
  (point_last_mort): Linear(in_features=1186, out_features=17, bias=True)
)
2022-04-29 04:02:45,773 - INFO - Custom bins confusion matrix:
2022-04-29 04:02:45,774 - INFO - [[1008913  827083  170845   52677   20545    9741    4912    2765    4502
     1020]
 [ 378298  556582  180348   64899   27574   13012    6743    3727    6017
     1251]
 [ 144106  325398  157931   65943   29736   14963    8143    4488    7644
     1641]
 [  61807  190011  123689   60268   29511   15815    8760    5158    9015
…
