…
        12,
        12,
        12,
        12,
        12,
        12,
        12,
        12
    ]
}
2022-05-01 20:18:09,529 - INFO - Experiment set up.
2022-05-01 20:18:12,300 - INFO - TempPointConv(
  (relu): ReLU()
  (sigmoid): Sigmoid()
  (hardtanh): Hardtanh(min_val=0.020833333333333332, max_val=100)
  (msle_loss): MSLELoss(
    (squared_error): MSELoss()
  )
  (mse_loss): MSELoss(
    (squared_error): MSELoss()
  )
  (bce_loss): BCELoss()
  (main_dropout): Dropout(p=0.45, inplace=False)
  (temp_dropout): Dropout(p=0.05, inplace=False)
  (empty_module): EmptyModule()
  (diagnosis_encoder): Linear(in_features=293, out_features=64, bias=True)
  (bn_diagnosis_encoder): MyBatchNorm1d(64, eps=1e-05, momentum=0.1, affine=True, track_running_stats=True)
  (bn_point_last_los): MyBatchNorm1d(17, eps=1e-05, momentum=0.1, affine=True, track_running_stats=True)
  (bn_point_last_mort): MyBatchNorm1d(17, eps=1e-05, momentum=0.1, affine=True, track_running_stats=True)
  (point_final_los): Linear(in_features=17, out_features=1, bias=True)
  (point_final_mort): Linear(in_features=17, out_features=1, bias=True)
  (layer_modules): ModuleDict(
    (0): ModuleDict(
      (bn_temp): MyBatchNorm1d(12, eps=1e-05, momentum=0.1, affine=True, track_running_stats=True)
      (temp): Conv1d(2, 12, kernel_size=(4,), stride=(1,))
    )
    (1): ModuleDict(
      (bn_temp): MyBatchNorm1d(12, eps=1e-05, momentum=0.1, affine=True, track_running_stats=True)
      (temp): Conv1d(13, 12, kernel_size=(4,), stride=(1,), dilation=(3,))
    )
    (2): ModuleDict(
      (bn_temp): MyBatchNorm1d(12, eps=1e-05, momentum=0.1, affine=True, track_running_stats=True)
      (temp): Conv1d(13, 12, kernel_size=(4,), stride=(1,), dilation=(6,))
    )
    (3): ModuleDict(
      (bn_temp): MyBatchNorm1d(12, eps=1e-05, momentum=0.1, affine=True, track_running_stats=True)
      (temp): Conv1d(13, 12, kernel_size=(4,), stride=(1,), dilation=(9,))
    )
    (4): ModuleDict(
      (bn_temp): MyBatchNorm1d(12, eps=1e-05, momentum=0.1, affine=True, track_running_stats=True)
      (temp): Conv1d(13, 12, kernel_size=(4,), stride=(1,), dilation=(12,))
    )
    (5): ModuleDict(
      (bn_temp): MyBatchNorm1d(12, eps=1e-05, momentum=0.1, affine=True, track_running_stats=True)
      (temp): Conv1d(13, 12, kernel_size=(4,), stride=(1,), dilation=(15,))
    )
    (6): ModuleDict(
      (bn_temp): MyBatchNorm1d(12, eps=1e-05, momentum=0.1, affine=True, track_running_stats=True)
      (temp): Conv1d(13, 12, kernel_size=(4,), stride=(1,), dilation=(18,))
    )
    (7): ModuleDict(
      (bn_temp): MyBatchNorm1d(12, eps=1e-05, momentum=0.1, affine=True, track_running_stats=True)
      (temp): Conv1d(13, 12, kernel_size=(4,), stride=(1,), dilation=(21,))
    )
    (8): ModuleDict(
      (bn_temp): MyBatchNorm1d(12, eps=1e-05, momentum=0.1, affine=True, track_running_stats=True)
      (temp): Conv1d(13, 12, kernel_size=(4,), stride=(1,), dilation=(24,))
    )
  )
  (point_last_los): Linear(in_features=1260, out_features=17, bias=True)
  (point_last_mort): Linear(in_features=1260, out_features=17, bias=True)
)
2022-05-01 20:35:46,327 - INFO - Custom bins confusion matrix:
2022-05-01 20:35:46,329 - INFO - [[866623 974854 164386  49991  20437   9991   5568   3333   6100   1720]
 [344427 609506 164147  59648  26258  13217   7154   4323   7961   1810]
 [148236 360092 133576  55267  26094  13638   7815   4811   8558   1906]
 [ 72320 220311 105011  48255  24174  13081   7551   4659   8605   2063]
…
