…
        12,
        12,
        12,
        12,
        12,
        12,
        12,
        12
    ]
}
2022-04-27 15:49:03,702 - INFO - Experiment set up.
2022-04-27 15:49:06,413 - INFO - TempPointConv(
  (relu): ReLU()
  (sigmoid): Sigmoid()
  (hardtanh): Hardtanh(min_val=0.020833333333333332, max_val=100)
  (msle_loss): MSLELoss(
    (squared_error): MSELoss()
  )
  (mse_loss): MSELoss(
    (squared_error): MSELoss()
  )
  (bce_loss): BCELoss()
  (main_dropout): Dropout(p=0.45, inplace=False)
  (temp_dropout): Dropout(p=0.05, inplace=False)
  (empty_module): EmptyModule()
  (diagnosis_encoder): Linear(in_features=293, out_features=64, bias=True)
  (bn_diagnosis_encoder): MyBatchNorm1d(64, eps=1e-05, momentum=0.1, affine=True, track_running_stats=True)
  (bn_point_last_los): MyBatchNorm1d(17, eps=1e-05, momentum=0.1, affine=True, track_running_stats=True)
  (bn_point_last_mort): MyBatchNorm1d(17, eps=1e-05, momentum=0.1, affine=True, track_running_stats=True)
  (point_final_los): Linear(in_features=17, out_features=1, bias=True)
  (point_final_mort): Linear(in_features=17, out_features=1, bias=True)
  (layer_modules): ModuleDict(
    (0): ModuleDict(
      (bn_point): MyBatchNorm1d(13, eps=1e-05, momentum=0.1, affine=True, track_running_stats=True)
      (bn_temp): MyBatchNorm1d(1044, eps=1e-05, momentum=0.1, affine=True, track_running_stats=True)
      (point): Linear(in_features=241, out_features=13, bias=True)
      (temp): Conv1d(174, 1044, kernel_size=(4,), stride=(1,), groups=87)
    )
    (1): ModuleDict(
      (bn_point): MyBatchNorm1d(13, eps=1e-05, momentum=0.1, affine=True, track_running_stats=True)
      (bn_temp): MyBatchNorm1d(1200, eps=1e-05, momentum=0.1, affine=True, track_running_stats=True)
      (point): Linear(in_features=1298, out_features=13, bias=True)
      (temp): Conv1d(1300, 1200, kernel_size=(4,), stride=(1,), dilation=(3,), groups=100)
    )
    (2): ModuleDict(
      (bn_point): MyBatchNorm1d(13, eps=1e-05, momentum=0.1, affine=True, track_running_stats=True)
      (bn_temp): MyBatchNorm1d(1356, eps=1e-05, momentum=0.1, affine=True, track_running_stats=True)
      (point): Linear(in_features=1454, out_features=13, bias=True)
      (temp): Conv1d(1469, 1356, kernel_size=(4,), stride=(1,), dilation=(6,), groups=113)
    )
    (3): ModuleDict(
      (bn_point): MyBatchNorm1d(13, eps=1e-05, momentum=0.1, affine=True, track_running_stats=True)
      (bn_temp): MyBatchNorm1d(1512, eps=1e-05, momentum=0.1, affine=True, track_running_stats=True)
      (point): Linear(in_features=1610, out_features=13, bias=True)
      (temp): Conv1d(1638, 1512, kernel_size=(4,), stride=(1,), dilation=(9,), groups=126)
    )
    (4): ModuleDict(
      (bn_point): MyBatchNorm1d(13, eps=1e-05, momentum=0.1, affine=True, track_running_stats=True)
      (bn_temp): MyBatchNorm1d(1668, eps=1e-05, momentum=0.1, affine=True, track_running_stats=True)
      (point): Linear(in_features=1766, out_features=13, bias=True)
      (temp): Conv1d(1807, 1668, kernel_size=(4,), stride=(1,), dilation=(12,), groups=139)
    )
    (5): ModuleDict(
      (bn_point): MyBatchNorm1d(13, eps=1e-05, momentum=0.1, affine=True, track_running_stats=True)
      (bn_temp): MyBatchNorm1d(1824, eps=1e-05, momentum=0.1, affine=True, track_running_stats=True)
      (point): Linear(in_features=1922, out_features=13, bias=True)
      (temp): Conv1d(1976, 1824, kernel_size=(4,), stride=(1,), dilation=(15,), groups=152)
    )
    (6): ModuleDict(
      (bn_point): MyBatchNorm1d(13, eps=1e-05, momentum=0.1, affine=True, track_running_stats=True)
      (bn_temp): MyBatchNorm1d(1980, eps=1e-05, momentum=0.1, affine=True, track_running_stats=True)
      (point): Linear(in_features=2078, out_features=13, bias=True)
      (temp): Conv1d(2145, 1980, kernel_size=(4,), stride=(1,), dilation=(18,), groups=165)
    )
    (7): ModuleDict(
      (bn_point): MyBatchNorm1d(13, eps=1e-05, momentum=0.1, affine=True, track_running_stats=True)
      (bn_temp): MyBatchNorm1d(2136, eps=1e-05, momentum=0.1, affine=True, track_running_stats=True)
      (point): Linear(in_features=2234, out_features=13, bias=True)
      (temp): Conv1d(2314, 2136, kernel_size=(4,), stride=(1,), dilation=(21,), groups=178)
    )
    (8): ModuleDict(
      (bn_point): MyBatchNorm1d(13, eps=1e-05, momentum=0.1, affine=True, track_running_stats=True)
      (bn_temp): MyBatchNorm1d(2292, eps=1e-05, momentum=0.1, affine=True, track_running_stats=True)
      (point): Linear(in_features=2390, out_features=13, bias=True)
      (temp): Conv1d(2483, 2292, kernel_size=(4,), stride=(1,), dilation=(24,), groups=191)
    )
  )
  (point_last_los): Linear(in_features=2781, out_features=17, bias=True)
  (point_last_mort): Linear(in_features=2781, out_features=17, bias=True)
)
2022-04-27 16:11:48,989 - INFO - Confusion matrix:
2022-04-27 16:11:48,991 - INFO - [[59451   770]
 [ 5791   903]]
2022-04-27 16:11:50,048 - INFO - Epoch: 0 | Train Loss: 19.3640
2022-04-27 16:15:18,427 - INFO - Confusion matrix:
2022-04-27 16:15:18,427 - INFO - [[12878    86]
 [ 1155   192]]
2022-04-27 16:15:19,283 - INFO - Epoch: 0 | Validation Loss: 15.8136
…
