…
        12,
        12,
        12,
        12,
        12,
        12,
        12,
        12
    ]
}
2022-05-06 07:52:26,675 - INFO - Experiment set up.
2022-05-06 07:52:29,638 - INFO - TempPointConv(
  (relu): ReLU()
  (sigmoid): Sigmoid()
  (hardtanh): Hardtanh(min_val=0.020833333333333332, max_val=100)
  (msle_loss): MSLELoss(
    (squared_error): MSELoss()
  )
  (mse_loss): MSELoss(
    (squared_error): MSELoss()
  )
  (bce_loss): BCELoss()
  (main_dropout): Dropout(p=0.45, inplace=False)
  (temp_dropout): Dropout(p=0.05, inplace=False)
  (empty_module): EmptyModule()
  (diagnosis_encoder): Linear(in_features=293, out_features=64, bias=True)
  (bn_diagnosis_encoder): MyBatchNorm1d(64, eps=1e-05, momentum=0.1, affine=True, track_running_stats=True)
  (bn_point_last_los): MyBatchNorm1d(17, eps=1e-05, momentum=0.1, affine=True, track_running_stats=True)
  (bn_point_last_mort): MyBatchNorm1d(17, eps=1e-05, momentum=0.1, affine=True, track_running_stats=True)
  (point_final_los): Linear(in_features=17, out_features=1, bias=True)
  (point_final_mort): Linear(in_features=17, out_features=1, bias=True)
  (layer_modules): ModuleDict(
    (0): ModuleDict(
      (bn_temp): MyBatchNorm1d(12, eps=1e-05, momentum=0.1, affine=True, track_running_stats=True)
      (temp): Conv1d(2, 12, kernel_size=(4,), stride=(1,))
    )
    (1): ModuleDict(
      (bn_temp): MyBatchNorm1d(12, eps=1e-05, momentum=0.1, affine=True, track_running_stats=True)
      (temp): Conv1d(13, 12, kernel_size=(4,), stride=(1,), dilation=(3,))
    )
    (2): ModuleDict(
      (bn_temp): MyBatchNorm1d(12, eps=1e-05, momentum=0.1, affine=True, track_running_stats=True)
      (temp): Conv1d(13, 12, kernel_size=(4,), stride=(1,), dilation=(6,))
    )
    (3): ModuleDict(
      (bn_temp): MyBatchNorm1d(12, eps=1e-05, momentum=0.1, affine=True, track_running_stats=True)
      (temp): Conv1d(13, 12, kernel_size=(4,), stride=(1,), dilation=(9,))
    )
    (4): ModuleDict(
      (bn_temp): MyBatchNorm1d(12, eps=1e-05, momentum=0.1, affine=True, track_running_stats=True)
      (temp): Conv1d(13, 12, kernel_size=(4,), stride=(1,), dilation=(12,))
    )
    (5): ModuleDict(
      (bn_temp): MyBatchNorm1d(12, eps=1e-05, momentum=0.1, affine=True, track_running_stats=True)
      (temp): Conv1d(13, 12, kernel_size=(4,), stride=(1,), dilation=(15,))
    )
    (6): ModuleDict(
      (bn_temp): MyBatchNorm1d(12, eps=1e-05, momentum=0.1, affine=True, track_running_stats=True)
      (temp): Conv1d(13, 12, kernel_size=(4,), stride=(1,), dilation=(18,))
    )
    (7): ModuleDict(
      (bn_temp): MyBatchNorm1d(12, eps=1e-05, momentum=0.1, affine=True, track_running_stats=True)
      (temp): Conv1d(13, 12, kernel_size=(4,), stride=(1,), dilation=(21,))
    )
    (8): ModuleDict(
      (bn_temp): MyBatchNorm1d(12, eps=1e-05, momentum=0.1, affine=True, track_running_stats=True)
      (temp): Conv1d(13, 12, kernel_size=(4,), stride=(1,), dilation=(24,))
    )
  )
  (point_last_los): Linear(in_features=1260, out_features=17, bias=True)
  (point_last_mort): Linear(in_features=1260, out_features=17, bias=True)
)
2022-05-06 12:21:08,823 - INFO - Custom bins confusion matrix:
2022-05-06 12:21:08,824 - INFO - [[204752 178647  40196  11743   5199   2875   1472    807   1367     74]
 [ 66110 122832  42252  15891   7829   4376   2383   1229   1817    112]
 [ 24187  68249  34373  15155   8453   4926   2667   1481   2092    105]
 [ 10413  38163  26110  12666   7733   5033   2764   1727   2470    163]
…
