…
        12,
        12,
        12,
        12,
        12,
        12,
        12,
        12
    ]
}
2022-05-06 18:20:31,675 - INFO - Experiment set up.
2022-05-06 18:20:34,819 - INFO - TempPointConv(
  (relu): ReLU()
  (sigmoid): Sigmoid()
  (hardtanh): Hardtanh(min_val=0.020833333333333332, max_val=100)
  (msle_loss): MSLELoss(
    (squared_error): MSELoss()
  )
  (mse_loss): MSELoss(
    (squared_error): MSELoss()
  )
  (bce_loss): BCELoss()
  (main_dropout): Dropout(p=0.45, inplace=False)
  (temp_dropout): Dropout(p=0.05, inplace=False)
  (empty_module): EmptyModule()
  (diagnosis_encoder): Linear(in_features=293, out_features=64, bias=True)
  (bn_diagnosis_encoder): MyBatchNorm1d(64, eps=1e-05, momentum=0.1, affine=True, track_running_stats=True)
  (bn_point_last_los): MyBatchNorm1d(17, eps=1e-05, momentum=0.1, affine=True, track_running_stats=True)
  (bn_point_last_mort): MyBatchNorm1d(17, eps=1e-05, momentum=0.1, affine=True, track_running_stats=True)
  (point_final_los): Linear(in_features=17, out_features=1, bias=True)
  (point_final_mort): Linear(in_features=17, out_features=1, bias=True)
  (layer_modules): ModuleDict(
    (0): ModuleDict(
      (bn_point): MyBatchNorm1d(13, eps=1e-05, momentum=0.1, affine=True, track_running_stats=True)
      (bn_temp): MyBatchNorm1d(1044, eps=1e-05, momentum=0.1, affine=True, track_running_stats=True)
      (point): Linear(in_features=241, out_features=13, bias=True)
      (temp): Conv1d(174, 1044, kernel_size=(4,), stride=(1,), groups=87)
    )
    (1): ModuleDict(
      (bn_point): MyBatchNorm1d(13, eps=1e-05, momentum=0.1, affine=True, track_running_stats=True)
      (bn_temp): MyBatchNorm1d(1044, eps=1e-05, momentum=0.1, affine=True, track_running_stats=True)
      (point): Linear(in_features=13, out_features=13, bias=True)
      (temp): Conv1d(1044, 1044, kernel_size=(4,), stride=(1,), dilation=(3,), groups=87)
    )
    (2): ModuleDict(
      (bn_point): MyBatchNorm1d(13, eps=1e-05, momentum=0.1, affine=True, track_running_stats=True)
      (bn_temp): MyBatchNorm1d(1044, eps=1e-05, momentum=0.1, affine=True, track_running_stats=True)
      (point): Linear(in_features=13, out_features=13, bias=True)
      (temp): Conv1d(1044, 1044, kernel_size=(4,), stride=(1,), dilation=(6,), groups=87)
    )
    (3): ModuleDict(
      (bn_point): MyBatchNorm1d(13, eps=1e-05, momentum=0.1, affine=True, track_running_stats=True)
      (bn_temp): MyBatchNorm1d(1044, eps=1e-05, momentum=0.1, affine=True, track_running_stats=True)
      (point): Linear(in_features=13, out_features=13, bias=True)
      (temp): Conv1d(1044, 1044, kernel_size=(4,), stride=(1,), dilation=(9,), groups=87)
    )
    (4): ModuleDict(
      (bn_point): MyBatchNorm1d(13, eps=1e-05, momentum=0.1, affine=True, track_running_stats=True)
      (bn_temp): MyBatchNorm1d(1044, eps=1e-05, momentum=0.1, affine=True, track_running_stats=True)
      (point): Linear(in_features=13, out_features=13, bias=True)
      (temp): Conv1d(1044, 1044, kernel_size=(4,), stride=(1,), dilation=(12,), groups=87)
    )
    (5): ModuleDict(
      (bn_point): MyBatchNorm1d(13, eps=1e-05, momentum=0.1, affine=True, track_running_stats=True)
      (bn_temp): MyBatchNorm1d(1044, eps=1e-05, momentum=0.1, affine=True, track_running_stats=True)
      (point): Linear(in_features=13, out_features=13, bias=True)
      (temp): Conv1d(1044, 1044, kernel_size=(4,), stride=(1,), dilation=(15,), groups=87)
    )
    (6): ModuleDict(
      (bn_point): MyBatchNorm1d(13, eps=1e-05, momentum=0.1, affine=True, track_running_stats=True)
      (bn_temp): MyBatchNorm1d(1044, eps=1e-05, momentum=0.1, affine=True, track_running_stats=True)
      (point): Linear(in_features=13, out_features=13, bias=True)
      (temp): Conv1d(1044, 1044, kernel_size=(4,), stride=(1,), dilation=(18,), groups=87)
    )
    (7): ModuleDict(
      (bn_point): MyBatchNorm1d(13, eps=1e-05, momentum=0.1, affine=True, track_running_stats=True)
      (bn_temp): MyBatchNorm1d(1044, eps=1e-05, momentum=0.1, affine=True, track_running_stats=True)
      (point): Linear(in_features=13, out_features=13, bias=True)
      (temp): Conv1d(1044, 1044, kernel_size=(4,), stride=(1,), dilation=(21,), groups=87)
    )
    (8): ModuleDict(
      (bn_point): MyBatchNorm1d(13, eps=1e-05, momentum=0.1, affine=True, track_running_stats=True)
      (bn_temp): MyBatchNorm1d(1044, eps=1e-05, momentum=0.1, affine=True, track_running_stats=True)
      (point): Linear(in_features=13, out_features=13, bias=True)
      (temp): Conv1d(1044, 1044, kernel_size=(4,), stride=(1,), dilation=(24,), groups=87)
    )
  )
  (point_last_los): Linear(in_features=1186, out_features=17, bias=True)
  (point_last_mort): Linear(in_features=1186, out_features=17, bias=True)
)
2022-05-06 22:47:58,859 - INFO - Custom bins confusion matrix:
2022-05-06 22:47:58,861 - INFO - [[369938  67312   6324   2036    809    386    151     92     81      3]
 [ 64659 168306  21614   5420   2441   1209    574    328    273      7]
 [  8861  74386  52994  15462   5043   2342   1259    626    680     35]
 [  1990  16730  36853  29129  12692   4944   2181   1286   1355     82]
…
