…
    "temp_kernels": [
        11,
        11,
        11,
        11,
        11,
        11,
        11,
        11
    ]
}
2022-05-06 22:38:32,993 - INFO - Experiment set up.
2022-05-06 22:38:35,798 - INFO - TempPointConv(
  (relu): ReLU()
  (sigmoid): Sigmoid()
  (hardtanh): Hardtanh(min_val=0.020833333333333332, max_val=100)
  (msle_loss): MSLELoss(
    (squared_error): MSELoss()
  )
  (mse_loss): MSELoss(
    (squared_error): MSELoss()
  )
  (bce_loss): BCELoss()
  (main_dropout): Dropout(p=0, inplace=False)
  (temp_dropout): Dropout(p=0.05, inplace=False)
  (empty_module): EmptyModule()
  (diagnosis_encoder): Linear(in_features=1, out_features=64, bias=True)
  (bn_diagnosis_encoder): MyBatchNorm1d(64, eps=1e-05, momentum=0.1, affine=True, track_running_stats=True)
  (bn_point_last_los): MyBatchNorm1d(36, eps=1e-05, momentum=0.1, affine=True, track_running_stats=True)
  (bn_point_last_mort): MyBatchNorm1d(36, eps=1e-05, momentum=0.1, affine=True, track_running_stats=True)
  (point_final_los): Linear(in_features=36, out_features=1, bias=True)
  (point_final_mort): Linear(in_features=36, out_features=1, bias=True)
  (layer_modules): ModuleDict(
    (0): ModuleDict(
      (bn_point): MyBatchNorm1d(5, eps=1e-05, momentum=0.1, affine=True, track_running_stats=True)
      (bn_temp): MyBatchNorm1d(1111, eps=1e-05, momentum=0.1, affine=True, track_running_stats=True)
      (point): Linear(in_features=237, out_features=5, bias=True)
      (temp): Conv1d(202, 1111, kernel_size=(5,), stride=(1,), groups=101)
    )
    (1): ModuleDict(
      (bn_point): MyBatchNorm1d(5, eps=1e-05, momentum=0.1, affine=True, track_running_stats=True)
      (bn_temp): MyBatchNorm1d(1166, eps=1e-05, momentum=0.1, affine=True, track_running_stats=True)
      (point): Linear(in_features=1353, out_features=5, bias=True)
      (temp): Conv1d(1272, 1166, kernel_size=(5,), stride=(1,), dilation=(4,), groups=106)
    )
    (2): ModuleDict(
      (bn_point): MyBatchNorm1d(5, eps=1e-05, momentum=0.1, affine=True, track_running_stats=True)
      (bn_temp): MyBatchNorm1d(1221, eps=1e-05, momentum=0.1, affine=True, track_running_stats=True)
      (point): Linear(in_features=1408, out_features=5, bias=True)
      (temp): Conv1d(1332, 1221, kernel_size=(5,), stride=(1,), dilation=(8,), groups=111)
    )
    (3): ModuleDict(
      (bn_point): MyBatchNorm1d(5, eps=1e-05, momentum=0.1, affine=True, track_running_stats=True)
      (bn_temp): MyBatchNorm1d(1276, eps=1e-05, momentum=0.1, affine=True, track_running_stats=True)
      (point): Linear(in_features=1463, out_features=5, bias=True)
      (temp): Conv1d(1392, 1276, kernel_size=(5,), stride=(1,), dilation=(12,), groups=116)
    )
    (4): ModuleDict(
      (bn_point): MyBatchNorm1d(5, eps=1e-05, momentum=0.1, affine=True, track_running_stats=True)
      (bn_temp): MyBatchNorm1d(1331, eps=1e-05, momentum=0.1, affine=True, track_running_stats=True)
      (point): Linear(in_features=1518, out_features=5, bias=True)
      (temp): Conv1d(1452, 1331, kernel_size=(5,), stride=(1,), dilation=(16,), groups=121)
    )
    (5): ModuleDict(
      (bn_point): MyBatchNorm1d(5, eps=1e-05, momentum=0.1, affine=True, track_running_stats=True)
      (bn_temp): MyBatchNorm1d(1386, eps=1e-05, momentum=0.1, affine=True, track_running_stats=True)
      (point): Linear(in_features=1573, out_features=5, bias=True)
      (temp): Conv1d(1512, 1386, kernel_size=(5,), stride=(1,), dilation=(20,), groups=126)
    )
    (6): ModuleDict(
      (bn_point): MyBatchNorm1d(5, eps=1e-05, momentum=0.1, affine=True, track_running_stats=True)
      (bn_temp): MyBatchNorm1d(1441, eps=1e-05, momentum=0.1, affine=True, track_running_stats=True)
      (point): Linear(in_features=1628, out_features=5, bias=True)
      (temp): Conv1d(1572, 1441, kernel_size=(5,), stride=(1,), dilation=(24,), groups=131)
    )
    (7): ModuleDict(
      (bn_point): MyBatchNorm1d(5, eps=1e-05, momentum=0.1, affine=True, track_running_stats=True)
      (bn_temp): MyBatchNorm1d(1496, eps=1e-05, momentum=0.1, affine=True, track_running_stats=True)
      (point): Linear(in_features=1683, out_features=5, bias=True)
      (temp): Conv1d(1632, 1496, kernel_size=(5,), stride=(1,), dilation=(28,), groups=136)
    )
  )
  (point_last_los): Linear(in_features=1725, out_features=36, bias=True)
  (point_last_mort): Linear(in_features=1725, out_features=36, bias=True)
)
2022-05-07 01:15:05,069 - INFO - Confusion matrix:
2022-05-07 01:15:05,070 - INFO - [[6130  209]
 [ 411  459]]
2022-05-07 01:15:06,143 - INFO - Test Loss: 19.3644
2022-05-07 01:15:06,318 - INFO - Experiment ended. Checkpoints stored =)
